…
ure release, the default value for `weights_only` will be flipped to `True`. This limits the functions that could be executed during unpickling. Arbitrary objects will no longer be allowed to be loaded via this mode unless they are explicitly allowlisted by the user via `torch.serialization.add_safe_globals`. We recommend you start setting `weights_only=True` for any use case where you don't have full control of the loaded file. Please open an issue on GitHub for any issues related to this experimental feature.
  text_adj = torch.load(text_adj_file)
02 Aug 12:42    INFO MGCN(
  (user_embedding): Embedding(39387, 256)
  (item_id_embedding): Embedding(23033, 256)
  (image_embedding): Embedding(23033, 4096)
  (text_embedding): Embedding(23033, 384)
  (image_trs): Linear(in_features=4096, out_features=256, bias=True)
  (text_trs): Linear(in_features=384, out_features=256, bias=True)
  (softmax): Softmax(dim=-1)
  (query_common): Sequential(
    (0): Linear(in_features=256, out_features=256, bias=True)
    (1): Tanh()
    (2): Linear(in_features=256, out_features=1, bias=False)
  )
  (gate_v): Sequential(
    (0): Linear(in_features=256, out_features=256, bias=True)
    (1): Sigmoid()
  )
  (gate_t): Sequential(
    (0): Linear(in_features=256, out_features=256, bias=True)
    (1): Sigmoid()
  )
  (gate_image_prefer): Sequential(
    (0): Linear(in_features=256, out_features=256, bias=True)
    (1): Sigmoid()
  )
  (gate_text_prefer): Sequential(
    (0): Linear(in_features=256, out_features=256, bias=True)
    (1): Sigmoid()
  )
  (feature_filter): DAMPS(
    (image_embedding): Embedding(23033, 4096)
    (text_embedding): Embedding(23033, 384)
    (image_trs): Linear(in_features=4096, out_features=256, bias=True)
    (text_trs): Linear(in_features=384, out_features=256, bias=True)
  )
)
Trainable parameters: 224979589
02 Aug 12:42    INFO epoch 0 training [time: 5.49s, train loss: 73.5627]
02 Aug 12:42    INFO epoch 0 evaluating [time: 2.34s, valid_score: 0.089200]
02 Aug 12:42    INFO valid result: 
recall@10: 0.0618    recall@20: 0.0892    ndcg@10: 0.0332    ndcg@20: 0.0401    
02 Aug 12:42    INFO test result: 
recall@10: 0.0621    recall@20: 0.0885    ndcg@10: 0.0335    ndcg@20: 0.0402    
…
