…
ure release, the default value for `weights_only` will be flipped to `True`. This limits the functions that could be executed during unpickling. Arbitrary objects will no longer be allowed to be loaded via this mode unless they are explicitly allowlisted by the user via `torch.serialization.add_safe_globals`. We recommend you start setting `weights_only=True` for any use case where you don't have full control of the loaded file. Please open an issue on GitHub for any issues related to this experimental feature.
  text_adj = torch.load(text_adj_file)
08 Oct 11:33    INFO MGCN(
  (user_embedding): Embedding(19445, 256)
  (item_id_embedding): Embedding(7050, 256)
  (image_embedding): Embedding(7050, 4096)
  (text_embedding): Embedding(7050, 384)
  (image_trs): Linear(in_features=4096, out_features=256, bias=True)
  (text_trs): Linear(in_features=384, out_features=256, bias=True)
  (softmax): Softmax(dim=-1)
  (query_common): Sequential(
    (0): Linear(in_features=256, out_features=256, bias=True)
    (1): Tanh()
    (2): Linear(in_features=256, out_features=1, bias=False)
  )
  (gate_v): Sequential(
    (0): Linear(in_features=256, out_features=256, bias=True)
    (1): Sigmoid()
  )
  (gate_t): Sequential(
    (0): Linear(in_features=256, out_features=256, bias=True)
    (1): Sigmoid()
  )
  (gate_image_prefer): Sequential(
    (0): Linear(in_features=256, out_features=256, bias=True)
    (1): Sigmoid()
  )
  (gate_text_prefer): Sequential(
    (0): Linear(in_features=256, out_features=256, bias=True)
    (1): Sigmoid()
  )
  (feature_filter): SMOREFrequencyFilter(
    (image_embedding): Embedding(7050, 4096)
    (text_embedding): Embedding(7050, 384)
    (image_trs): Linear(in_features=4096, out_features=256, bias=True)
    (text_trs): Linear(in_features=384, out_features=256, bias=True)
  )
)
Trainable parameters: 72575109
08 Oct 11:33    INFO epoch 0 training [time: 2.77s, train loss: 44.2598]
08 Oct 11:33    INFO epoch 0 evaluating [time: 3.04s, valid_score: 0.050700]
08 Oct 11:33    INFO valid result: 
recall@5: 0.0225    recall@10: 0.0345    recall@20: 0.0507    recall@50: 0.0801    ndcg@5: 0.0152    ndcg@10: 0.0191    ndcg@20: 0.0232    ndcg@50: 0.0291    precision@5: 0.0048    precision@10: 0.0036    precision@20: 0.0027    precision@50: 0.0017    map@5: 0.0126    map@10: 0.0142    map@20: 0.0153    map@50: 0.0162    
…
